imgs/checkpoint.pt (torch_old, 188494 bytes, 4 tensors)

weight_in_hid f4 [1433, 32]
-0.04664715 0.016146403 -0.037359934 0.02788928 -0.05577673 -0.016239785 0.05313678 0.0072370097
0.024191836 -0.031800117 0.06143935 0.041269656 0.04929587 0.008413101 0.050138272 0.046423014
0.015936261 -0.021673145 0.015288142 -0.04980413 -0.022893311 0.025233744 0.05164913 -0.04958425
0.03705485 0.013927446 -0.07127884 0.04565283 0.008884617 0.05656349 0.022643147 0.015536093
-0.011927869 -0.04891153 0.04935733 -0.049608383 0.04097309 0.015525401 0.050274566 0.007424405
-0.01629437 -0.07095494 0.0072443406 0.029023882 -0.0680807 -0.03404983 0.056379326 -0.024481656
-0.0041605136 -0.00086484867 0.0214497 -0.08007003 -0.0053183176 -0.023044499 0.011598657 -0.028557878
-0.016759474 0.069981456 0.030082997 -0.033072747 -0.036305673 -0.013856281 -0.062167622 -0.020864626
0.0029612659 0.04458137 -0.019499911 -0.001640599 0.0035972358 0.024371851 0.03263009 -0.012947852
-0.02145996 0.04286689 0.024938615 0.029478956 0.07505631 -0.0061344076 0.060709156 -0.06019375
0.034938995 -0.06796187 -0.010627501 -0.005844735 -0.0587566 0.04688393 -0.033714164 -0.06079324
0.011248946 0.022287603 -0.038778197 -0.032533336 -0.06841863 -0.03314388 -0.029010572 0.018506236
0.044422265 -0.054197248 -0.054924026 -0.065123655 -0.056955736 -0.06292819 0.056183774 0.022120649
-0.07049526 -0.0058688195 -0.06540818 -0.004636012 -0.024926458 -0.05599776 0.014808332 -0.0662797
-0.058193255 0.016643751 0.039520174 -0.07615274 -0.020556418 -0.024256656 -0.035223283 0.046880934
-0.013061885 -0.061009724 0.015520649 -0.017066399 -0.030385813 -0.0031962804 0.021099553 -0.055355728
-0.02965924 -0.041418277 -0.0031517667 0.031966694 -0.062175244 -0.02831926 -0.07278383 0.00828211
-0.009263448 -0.054538816 0.046179347 -0.0029826984 0.04279818 0.0029634205 -0.00050832145 -0.003390201
-0.02107854 0.053995892 -0.047590237 -0.037992116 -0.08796043 0.02037662 0.013793024 0.03597717
0.006602259 -0.008978187 0.001278965 -0.013844274 -0.034728095 -0.043777335 0.040226866 -0.05661346
0.016677592 0.042425536 -0.0641699 0.06949933 -0.03618426 -0.041899774 0.037506152 0.03948554
-0.023665387 0.022323169 0.043009076 0.08091947 -0.040221754 0.030904312 0.0022552635 -0.04432511
-0.039531104 0.08077684 0.025957232 -0.0077659083 0.022356838 0.019177586 0.045578774 0.0069069397
0.055085607 0.04897556 0.060983244 0.027305286 -0.072883815 0.04016392 0.018391384 -0.061559748
-0.036563307 0.04209349 -0.046833355 0.0069384687 0.0077818795 -0.013685464 -0.025826976 -0.0033941285
0.06343792 -0.016864168 -0.041107908 0.013029927 0.0013360456 -0.0031447296 -0.07103863 -0.024982186
-0.035758127 -0.071486734 -0.06539866 -0.07820606 -0.061883535 -0.040336426 -0.041802287 0.020087326
0.01240686 -0.059740912 0.043088343 -0.03436466 -0.0020822603 -0.00057737506 -0.009691336 0.010975574
-0.0579264 -0.0009221569 0.016296037 -0.009698625 0.020521918 -0.012529516 0.04527034 -0.054971345
0.0321268 -0.023158444 0.017685095 -0.0058507603 0.0015239567 0.04261483 -0.061604094 0.01855776
-0.0017946011 -0.060911793 -0.05326256 -0.02068264 0.039740574 -0.08637315 -0.023045033 -0.041087106
-0.027967896 -0.005746771 -0.03663514 -0.05750308 0.020778146 0.05440463 -0.0007818002 -0.03054683
00000000: 1511 3fbd 7645 843c bb06 19bd 0f78 e43c
00000010: 2476 64bd 4c09 85bc f4a5 593d 7024 ed3b
00000020: f52d c63c d740 02bd d4a7 7b3d 5f0a 293d
00000030: 77ea 493d 1ad7 093c ca5d 4d3d 0f26 3e3d
00000040: c38c 823c e18b b1bc 1d7b 7a3c 6aff 4bbd
00000050: c18a bbbc ffb6 ce3c 0a8e 533d db18 4bbd
00000060: d4c6 173d f12f 643c a4fa 91bd 76fe 3a3d
00000070: c990 113c 1eaf 673d 1f7e b93c 198b 7e3c
00000080: 1c6d 43bc 7557 48bd e92a 4a3d 2932 4bbd
00000090: 66d3 273d 405e 7e3c b4ec 4d3d 6c48 f33b
000000a0: c57b 85bc d350 91bd ef61 ed3b 7ec3 ed3c
000000b0: e56d 8bbd d677 0bbd 02ee 663d c18d c8bc
000000c0: eb54 88bb 03b7 62ba 48b7 af3c c2fb a3bd
000000d0: 4845 aebb d1c7 bcbc 4b08 3e3c 36f2 e9bc
000000e0: 2a4b 89bc 7052 8f3d 9e70 f63c 4a77 07bd
000000f0: 42b5 14bd 7405 63bc 7aa3 7ebd 4bec aabc
00000100: cc11 423b f49a 363d 47be 9fbc 5e09 d7ba
00000110: 9abf 6b3b 7aa7 c73c 21a7 053d 3a23 54bc
00000120: cccc afbc 3195 2f3d 114c cc3c da7d f13c
00000130: 1fb7 993d 2403 c9bb 2aaa 783d b98d 76bd
00000140: 311c 0f3d 982f 8bbd f81e 2ebc 3185 bfbb
00000150: c3aa 70bd 5d09 403d dd17 0abd 5502 79bd
00000160: 804d 383c 7e94 b63c e3d5 1ebd ad41 05bd
00000170: 111f 8cbd e1c1 07bd 94a7 edbc 649a 973c
00000180: 1ff4 353d effd 5dbd 04f8 60bd 8d5f 85bd
00000190: 6b4a 69bd 7fe0 80bd f520 663d 5d36 b53c
000001a0: d25f 90bd 3a4f c0bb b9f4 85bd b0e9 97bb
000001b0: 9232 ccbc e85d 65bd a59e 723c a7bd 87bd
000001c0: 0d5c 6ebd 7a58 883c e8df 213d f8f5 9bbd
000001d0: ef65 a8bc e5b5 c6bc 4a46 10bd 3906 403d
000001e0: 8401 56bc 55e5 79bd 524a 7e3c d5ce 8bbc
000001f0: abeb f8bc b078 51bb f8d8 ac3c b0bc 62bd
00000200: eff7 f2bc 36a6 29bd df8d 4ebb 82ef 023d
00000210: 78ab 7ebd cbfd e7bc b00f 95bd b0b1 073c
00000220: b8c5 17bc 1864 5fbd 8e26 3d3d 6079 43bb
00000230: 254d 2f3d f235 423b e040 05ba 222e 5ebb
00000240: e7ac acbc cc2a 5d3d fbed 42bd 9f9d 1bbd
00000250: 9924 b4bd dfec a63c 23fc 613c cc5c 133d
00000260: c357 d83b 3f19 13bc f2a2 a73a 18d3 62bc
00000270: 0c3f 0ebd dd4f 33bd edc4 243d 84e3 67bd
00000280: 729f 883c 66c6 2d3d 826b 83bd aa55 8e3d
00000290: f235 14bd 199f 2bbd 0da0 193d 97bb 213d
000002a0: eadd c1bc 14df b63c 492a 303d 1bb9 a53d
000002b0: 91bf 24bd 0a2b fd3c 0bcd 133b 3f8e 35bd
000002c0: 5eeb 21bd 546e a53d 43a4 d43c 2979 febb
000002d0: b025 b73c 501a 9d3c cfb0 3a3d 9c53 e23b
000002e0: 72a1 613d 999a 483d 91c9 793d 56af df3c
000002f0: 1c44 95bd ec82 243d 87a9 963c 1326 7cbd
00000300: 68c3 15bd 396a 2c3d 55d4 3fbd 185c e33b
00000310: 23ff fe3b ff38 60bc 1893 d3bc 0770 5ebb
00000320: bdeb 813d b926 8abc c460 28bd 7a7b 553c
00000330: 401e af3a cf17 4ebb b47c 91bd 71a7 ccbc
00000340: 1d77 12bd a367 92bd bcef 85bd 802a a0bd
00000350: 9779 7dbd cf37 25bd e038 2bbd 2d8e a43c
00000360: 2446 4b3c e3b2 74bd 677d 303d f5c1 0cbd
00000370: 8876 08bb fc5a 17ba 69c8 1ebc e5d2 333c
00000380: 3c44 6dbd e7bc 71ba 447f 853c fbe6 1ebc
00000390: 951d a83c 9948 4dbc 646d 393d a229 61bd
000003a0: 6497 033d c7b6 bdbc 55e0 903c bcb7 bfbb
000003b0: 80bf c73a e38c 2e3d 9354 7cbd 7206 983c
000003c0: d238 ebba a57e 79bd d829 5abd a46e a9bc
000003d0: 03c7 223d 68e4 b0bd f0c8 bcbc f44a 28bd
000003e0: ee1c e5bc 694f bcbb bb0e 16bd 5a88 6bbd
000003f0: ee36 aa3c 64d7 5e3d b9f1 4cba 583d fabc

bias_in_hid f4 [32]
-0.055235088 0.01281879 -0.006167348 0.015798066 0.007476779 0.0713486 0.037767895 -0.059071
0.05515216 0.019221295 0.028609898 0.052433364 -0.033513844 -0.048297368 0.017203735 -0.0738329
0.013735857 0.009061902 0.042051315 0.03745706 -0.02397578 0.064145856 -0.012483645 -0.055324588
0.005400179 -0.028532835 0.052112963 -0.06530437 -0.042818207 0.052300125 -0.035762977 -0.02671131
00000000: 303e 62bd e705 523c 7717 cabb f26a 813c
00000010: c5ff f43b 371f 923d 82b2 1a3d 6ff4 71bd
00000020: 3be7 613d fa75 9d3c 4e5f ea3c 5ec4 563d
00000030: d045 09bd 76d3 45bd d9ee 8c3c b435 97bd
00000040: 5c0c 613c 5f78 143c 003e 2c3d 936c 193d
00000050: db68 c4bc e75e 833d 3488 4cbc 099c 62bd
00000060: fcf3 b03b b1bd e9bc 6774 553d 4cbe 85bd
00000070: 2562 2fbd a838 563d 337c 12bd add1 dabc

weight_hid_out f4 [32, 32]
-0.13346155 0.013154089 -0.15716246 0.08684252 -0.13191016 0.22562891 0.0954537 -0.0065138103
-0.028513325 0.12854107 -0.100070454 0.014042383 -0.051752564 -0.20092423 -0.24281487 0.22627045
-0.08033376 0.143939 -0.010335277 -0.18635596 -0.29940695 -0.20889863 -0.104755834 0.28346288
0.31332877 -0.07135735 0.116274215 0.061894394 0.27093548 -0.24043992 0.1841141 0.162003
-0.19510995 0.034360953 0.077728614 0.18300861 0.16248973 0.25474185 -0.13272014 0.22422944
0.23757233 0.24603075 -0.20014708 0.09612164 0.15101568 -0.046817552 -0.13141702 0.0032194154
-0.097317316 0.21366712 -0.21529455 0.113141775 0.10995327 -0.2190144 -0.19968477 0.025853558
0.090077385 -0.2746397 -0.14411983 0.17160112 -0.2868892 -0.07630863 -0.26400784 0.2595249
0.19797431 0.0138725005 0.08211491 -0.23010291 0.013309269 0.0032034367 -0.08436363 -0.1729028
-0.17173444 0.3032309 -0.04466509 -0.3033695 0.26373628 -0.039222736 0.09113854 -0.041021798
-0.062475394 -0.13318078 -0.22278716 0.051091015 0.24566063 -0.17845127 -0.16526859 -0.07183243
0.20162868 -0.26026192 0.15347964 -0.0873869 0.15677786 -0.2337302 0.29231453 -0.30201358
0.14468132 -0.20846519 -0.06501341 -0.05929402 0.29817134 -0.16923675 0.10691316 -0.03434012
0.06312734 0.21728057 -0.33798486 -0.31284896 -0.26360467 0.036179908 -0.21669547 -0.089354865
-0.2319746 0.19068725 -0.27436182 0.25404498 -0.0527178 -0.020695424 -0.27941823 0.055215444
0.28258222 0.18101454 -0.20066635 -0.012196051 -0.20839858 -0.13623632 -0.07614624 0.018630166
0.10520888 0.042675838 0.056482013 0.11995756 -0.15086424 0.01345866 0.052263603 -0.025282742
0.09960614 0.09388397 -0.11974522 -0.27503124 -0.29679164 -0.18436852 -0.23382646 -0.18370207
0.2358157 -0.1319065 -0.15061294 0.27359712 -0.29997322 0.10078787 -0.018237501 -0.0055111535
0.24374662 -0.13231996 -0.09890112 0.008773189 0.14015447 -0.06674882 0.06802125 -0.049617417
0.3306113 0.22789426 -0.2825423 -0.30294034 0.14447281 -0.19041717 0.120974325 0.230029
0.18408045 0.20575464 0.14042534 -0.01936576 -0.13584623 -0.09494687 0.23110394 0.14850916
-0.030099178 0.023772933 0.165533 0.0005520056 0.18333744 -0.2811897 -0.2743311 0.12544583
0.2374179 0.31642443 0.069169335 0.033531327 -0.18041545 -0.24170505 0.17020318 -0.1555427
-0.08207339 0.2712056 -0.006157069 -0.034780238 -0.20188628 -0.16210836 -0.21789873 -0.20844011
0.023143224 -0.056555353 0.042723477 -0.20624045 -0.12620656 -0.07131969 0.26766735 -0.19378924
-0.30557457 0.26230168 0.2481433 -0.09331147 -0.1103415 -0.29629192 0.19319347 -0.117355116
0.12288716 0.042732064 -0.2786518 0.09441793 0.28594553 -0.19396423 -0.0149993 0.24468276
0.07439139 -0.017126316 0.0823098 0.055407796 0.038464356 -0.172302 0.024560135 0.0070424993
0.22488946 0.09032958 -0.07881234 -0.25445205 -0.11253891 -0.019988913 -0.25890452 -0.22334573
-0.31772 0.26615897 0.30480126 0.23585828 0.044484697 -0.322287 0.18537688 -0.018955179
-0.1070249 -0.2883534 -0.3263794 -0.056489322 0.2896393 0.22129771 -0.119177744 0.074028656
00000000: 25aa 08be 4084 573c 32ef 20be 7eda b13d
00000010: 7513 07be 440b 673e 3b7d c33d cd71 d5bb
00000020: c794 e9bc 45a0 033e bdf1 ccbd 0612 663c
00000030: 7ffa 53bd 15bf 4dbe 76a4 78be 71b3 673e
00000040: 0786 a4bd bf64 133e 4b55 29bc 19d4 3ebe
00000050: de4b 99be 86e9 55be 3a8a d6bd 0c22 913e
00000060: a16c a03e cd23 92bd 2d21 ee3d fa84 7d3d
00000070: 0eb8 8a3e e235 76be 6888 3c3e 1de4 253e
00000080: e7ca 47be 12be 0c3d 2e30 9f3d 9c66 3b3e
00000090: b563 263e 866d 823e cae7 07be 679c 653e
000000a0: 2946 733e 7cef 7b3e 5bf3 4cbe 6cdb c43d
000000b0: dba3 1a3e c3c3 3fbd 2f92 06be d4fc 523b
000000c0: 4d4e c7bd 8ecb 5a3e 2d76 5cbe e0b6 e73d
000000d0: 2e2f e13d 5045 60be 2a7a 4cbe d7ca d33c
000000e0: 7e7a b83d 939d 8cbe 2694 13be 34b8 2f3e
000000f0: 24e3 92be b347 9cbd 092c 87be 73e0 843e
00000100: c7b9 4a3e 7c49 633c dd2b a83d 19a0 6bbe
00000110: 1f0f 5a3c c0f0 513b d7c6 acbd 6e0d 31be
00000120: 27db 2fbe 1541 9b3e bef2 36bd 3f53 9bbe
00000130: 7108 873e 05a8 20bd d8a6 ba3d 7906 28bd
00000140: 33e6 7fbd 8b60 08be 5122 64be d044 513d
00000150: 768e 7b3e eebb 36be 2b3c 29be e21c 93bd
00000160: c077 4e3e 0d41 85be c429 1d3e e7f7 b2bd
00000170: 608a 203e f856 6fbe 40aa 953e 86a1 9abe
00000180: 5727 143e e677 55be c025 85bd 49de 72bd
00000190: eaa9 983e 664c 2dbe 49f5 da3d 3aa8 0cbd
000001a0: e848 813d cc7e 5e3e 5a0c adbe bd2d a0be
000001b0: 31f7 86be 6231 143d 6be5 5dbe afff b6bd
000001c0: c08a 6dbe 8543 433e 2779 8cbe 2f12 823e
000001d0: 9fee 57bd 7389 a9bc e80f 8fbe 9729 623d
000001e0: 9eae 903e e05b 393e 7b7b 4dbe f2d1 47bc
000001f0: 7066 55be 8981 0bbe 8ff2 9bbd 4a9e 983c
00000200: c177 d73d dccc 2e3d af59 673d 4fac f53d
00000210: 287c 1abe b681 5c3c 5c12 563d c11d cfbc
00000220: 4efe cb3d 3d46 c03d fb3c f5bd e5d0 8cbe
00000230: 13f5 97be 1acb 3cbe 3470 6fbe 651c 3cbe
00000240: ac79 713e 7f12 07be 473a 1abe ec14 8c3e
00000250: 1796 99be df69 ce3d d066 95bc e896 b4bb
00000260: b798 793e e27e 07be ac8c cabd 6cbd 0f3c
00000270: a784 0f3e 9bb3 88bd ba4e 8b3d a23b 4bbd
00000280: e245 a93e 1d5d 693e 62a9 90be ff1a 9bbe
00000290: aef0 133e b8fc 42be 63c1 f73d b98c 6b3e
000002a0: 967f 3c3e 58b1 523e a9cb 0f3e f1a4 9ebc
000002b0: 461b 0bbe 8173 c2bd 83a6 6c3e c912 183e
000002c0: 8d92 f6bc 74bf c23c 7c81 293e 78b4 103a
000002d0: cfbc 3b3e 19f8 8fbe 2075 8cbe df74 003e
000002e0: ae1d 733e 6202 a23e a7a8 8d3d 2558 093d
000002f0: d4be 38be 8781 77be be49 2e3e 9646 1fbe
00000300: 1816 a8bd 76db 8a3e 3dc1 c9bb b975 0ebd
00000310: 47bb 4ebe bcff 25be d820 5fbe 5371 55be
00000320: dc96 bd3c 96a6 67bd d0fe 2e3d b230 53be
00000330: 4b3c 01be 0f10 92bd b20b 893e b070 46be
00000340: 4574 9cbe 684c 863e 4719 7e3e 151a bfbd
00000350: b9fa e1bd 93b3 97be 82d4 453e e157 f0bd
00000360: 43ac fb3d d107 2f3d 73ab 8ebe 305e c13d
00000370: 7467 923e 8f9e 46be a0bf 75bc 1e8e 7a3e
00000380: 835a 983d 7d4c 8cbc 0a92 a83d 49f3 623d
00000390: cd8c 1d3d ef6f 30be 5632 c93c c4c4 e63b
000003a0: 6c49 663e b7fe b83d 5d68 a1bd 8a47 82be
000003b0: cd7a e6bd cabf a3bc 228f 84be beb4 64be
000003c0: 32ac a2be fd45 883e e90e 9c3e d584 713e
000003d0: 9635 363d cd02 a5be 70d3 3d3e e447 9bbc
000003e0: df2f dbbd 0fa3 93be 331b a7be 5961 67bd
000003f0: 9a4b 943e de9b 623e 7613 f4bd 569c 973d

bias_hid_out f4 [32]
-0.21301925 -0.10762756 -0.2120569 0.24880889 -0.17962453 0.005387382 -0.094320886 -0.2828093
-0.09915731 0.014226503 -0.16502109 -0.14724532 0.17540632 0.07853069 0.26061967 0.0044141426
-0.049336 0.05337353 -0.24648167 -0.030507706 0.020719586 0.04128366 0.07165656 0.25803962
-0.07526366 0.072219945 -0.1995977 0.08558443 0.25268683 0.25614688 -0.111315854 -0.13484178
00000000: b821 5abe d76b dcbd 7225 59be c2c7 7e3e
00000010: 7eef 37be a388 b03b 4f2b c1bd 61cc 90be
00000020: fd12 cbbd 4716 693c 4afb 28be 7ac7 16be
00000030: b79d 333e b3d4 a03d f16f 853e 83a4 903b
00000040: 8c14 4abd 349e 5a3d b165 7cbe 4ceb f9bc
00000050: 1fbc a93c 0e19 293d adc0 923d c51d 843e
00000060: d523 9abd 0de8 933d 5763 4cbe e446 af3d
00000070: 2b60 813e af25 833e 91f9 e3bd f713 0abe
